Lab 3 - Re-enforcement learning (drive a taxi)/q_table_weights.npy (npy, 24128 bytes, 1 tensors)

array f8 [500, 6]
000000 00 00 00 00 00 00 00 00 00 00 00 00 00 00 00 00
       0.0 0.0
000010 00 00 00 00 00 00 00 00 00 00 00 00 00 00 00 00
       0.0 0.0
000020 00 00 00 00 00 00 00 00 00 00 00 00 00 00 00 00
       0.0 0.0
000030 a6 3c ba 73 7d 3d 07 c0 ca 4b 36 e4 b9 37 07 c0
       -2.9050244370660776 -2.9022100285596695
000040 c8 84 3f 84 80 62 07 c0 9a af 10 33 ec 8f 07 c0
       -2.9230966884502756 -2.945274733492579
000050 6e e3 8b 63 4d 22 03 c0 68 3d 61 b7 55 51 1c c0
       -2.391749170023494 -7.079428544340182
000060 fe 05 2a 3b 08 44 fe bf 75 16 ba 2b 62 65 e6 bf
       -1.89160941229818 -0.6998759130517117
000070 9a 50 d9 d0 fb 9d ff bf 67 0e 25 56 29 63 f1 bf
       -1.9760702284011473 -1.0867093434361779
000080 80 31 87 85 5a d3 e2 3f 55 7e 68 dd 9f 4d 1f c0
       0.5882999999972043 -7.8258051486041795
000090 c0 cd 76 eb 2d f8 04 c0 ec 4f 7a 45 78 bb 03 c0
       -2.62118133503256 -2.466537993235752
0000a0 d4 76 25 bb e1 a7 05 c0 a8 2d 40 0f df e9 03 c0
       -2.7069735165413054 -2.489194983621662
0000b0 10 c3 1f 8a b8 cf ff bf 00 00 00 00 00 00 10 c0
       -1.9882131000014773 -4.0
0000c0 83 98 7d 4e a1 16 0a c0 74 92 16 aa 2e 15 0a c0
       -3.2610498554304868 -3.260342911542745
0000d0 fa 97 f6 35 cd 0e 0a c0 f7 c5 ec de da 10 0a c0
       -3.2572273460273182 -3.2582299629218556
0000e0 32 13 cb 97 56 09 21 c0 60 ec 54 f8 b5 b5 1c c0
       -8.518238776721407 -7.177451973136243
0000f0 00 00 00 00 00 00 00 00 00 00 00 00 00 00 00 00
       0.0 0.0
000100 00 00 00 00 00 00 00 00 00 00 00 00 00 00 00 00
       0.0 0.0
000110 00 00 00 00 00 00 00 00 00 00 00 00 00 00 00 00
       0.0 0.0
000120 be 7d 9e d5 23 3c 0a c0 30 85 7e 44 78 38 0a c0
       -3.279365223788516 -3.2775731421576424
000130 cc de 5c 1a c7 37 0a c0 6e 71 b6 4c 0d 43 0a c0
       -3.2772352275459067 -3.2827402108361445
000140 18 d7 56 7f ed 31 1d c0 72 0e 7e f5 eb 91 22 c0
       -7.29875754325419 -9.285003348958728
000150 66 1a 97 3f 6f 43 09 c0 68 13 12 ae b6 40 09 c0
       -3.1579270332324993 -3.156598434378271
000160 84 8e 77 3a 30 53 09 c0 e0 18 05 09 e5 5f 09 c0
       -3.1656193320976076 -3.1718235687904865
000170 00 00 00 00 00 00 10 c0 00 00 00 00 00 00 10 c0
       -4.0 -4.0
000180 1a 74 5a 15 14 b4 04 c0 28 f5 2b af 6a 11 07 c0
       -2.5879289310673927 -2.8835042653360183
000190 da f8 73 d6 2a 48 07 c0 ca 4b 36 e4 b9 37 07 c0
       -2.9102379564420575 -2.9022100285596695
0001a0 f0 f1 ae 1f 07 ca 1a c0 00 00 00 00 00 00 10 c0
       -6.6972928 -4.0
0001b0 a6 4e ca 76 c8 2e 09 c0 da e3 b6 36 13 8f 09 c0
       -3.147843292282988 -3.1948608660281765
0001c0 76 f2 4f 2b 9f 89 09 c0 9c 43 55 44 3b bf 09 c0
       -3.19219812238435 -3.2183747614403284
0001d0 00 00 00 00 00 00 10 c0 74 31 1d 3e 2b 2f 24 c0
       -4.0 -10.092126790107365
0001e0 00 00 00 00 00 00 00 00 00 00 00 00 00 00 00 00
       0.0 0.0
0001f0 00 00 00 00 00 00 00 00 00 00 00 00 00 00 00 00
       0.0 0.0
000200 00 00 00 00 00 00 00 00 00 00 00 00 00 00 00 00
       0.0 0.0
000210 41 bf 59 2d d9 97 08 c0 6e 18 fe 8f b6 90 08 c0
       -3.074144701291431 -3.0706607102793475
000220 59 1b 62 74 99 c6 08 c0 34 ab 33 dc 2b 99 08 c0
       -3.096972378963454 -3.074790687872701
000230 00 00 00 00 00 00 10 c0 00 00 00 00 00 00 10 c0
       -4.0 -4.0
000240 86 25 ef ec 04 c3 09 c0 a6 a4 d1 a2 c5 c8 09 c0
       -3.2202242384416335 -3.2230332107761397
000250 c4 64 00 45 d2 be 09 c0 16 ab ef dc db c9 09 c0
       -3.2181744948144075 -3.223563886703583
000260 2c 79 7c 8f 35 87 1c c0 2f 6f b0 03 00 33 22 c0
       -7.13204025456643 -9.099609484946624
000270 33 5b e7 5f 94 19 09 c0 04 3e bf 89 d0 f2 08 c0
       -3.137490033386166 -3.1185618173110488
000280 af 9b b1 cd fd ff 08 c0 2e 87 4a f1 a0 00 09 c0
       -3.124995810492201 -3.1253069735402255
000290 a2 86 a9 0c 67 a7 20 c0 ae a2 f0 ed 1e 1f 1b c0
       -8.32695808 -6.780391423999999
0002a0 2c 16 4f b3 08 8a 09 c0 dc ce 5a 00 19 aa 09 c0
       -3.1923994072447126 -3.2080554988586822
0002b0 3a ca bf 1e 91 ad 09 c0 a6 56 37 36 cd 88 09 c0
       -3.209749450900998 -3.1917976604116403
0002c0 d4 74 11 57 aa 9c 1c c0 40 09 5e 94 b4 ee 1b c0
       -7.152993545952274 -6.9831107313532925
0002d0 00 00 00 00 00 00 00 00 00 00 00 00 00 00 00 00
       0.0 0.0
0002e0 00 00 00 00 00 00 00 00 00 00 00 00 00 00 00 00
       0.0 0.0
0002f0 00 00 00 00 00 00 00 00 00 00 00 00 00 00 00 00
       0.0 0.0
000300 f4 5f 55 91 5c fe 1b 40 88 16 ba 12 81 ea 27 40
       6.998399992786279 11.95801599999983
000310 a6 8c ee e6 f8 bc 1b 40 de 16 ba 12 81 ea 27 40
       6.934543236074353 11.958015999999983
000320 d4 75 01 56 0e 2d 02 40 fe ff ff ff ff ff 33 40
       2.27199999992329 19.999999999999993
000330 81 4f c0 ef 50 e5 05 c0 71 ec c9 d1 04 a5 06 c0
       -2.7369707804263617 -2.830575598692626
000340 95 ee 1f 8a b8 cf ff bf 80 a5 49 88 45 de 04 c0
       -1.9882131000039511 -2.60853105997802
000350 38 35 22 0f 85 52 21 c0 e2 79 9d 42 ec cd 05 c0
       -8.661171410489814 -2.725548286848821
000360 d2 fc d4 78 e9 26 02 40 13 a3 2f 2b 56 75 e9 bf
       2.2689999999998713 -0.7955733149984517
000370 26 31 99 0e c3 65 fa bf db 11 80 d9 ab 56 ea bf
       -1.6498442240000002 -0.8230799911548802
000380 91 1c c3 55 47 55 1b c0 c8 55 f9 54 88 bb ee bf
       -6.83327993396155 -0.9603921565673597
000390 16 f5 9a 57 75 96 f6 bf 1c c6 6e 9b 2c 3a 02 c0
       -1.411733000000202 -2.27840539390378
0003a0 c6 86 01 87 55 19 03 c0 fa 64 ac 06 8f 3a 01 c0
       -2.3873701617565954 -2.1535931130753143
0003b0 30 44 8c 5f 17 7b 1b c0 2c 94 a0 12 64 f3 02 c0
       -6.870206349311999 -2.36884321739719
0003c0 00 00 00 00 00 00 00 00 00 00 00 00 00 00 00 00
       0.0 0.0
0003d0 00 00 00 00 00 00 00 00 00 00 00 00 00 00 00 00
       0.0 0.0
0003e0 00 00 00 00 00 00 00 00 00 00 00 00 00 00 00 00
       0.0 0.0
0003f0 35 03 d6 c0 e8 28 08 c0 6a 2e 79 55 11 28 08 c0
       -3.0199751916228714 -3.0195643117529487
000400 fc 40 cc 6e 05 b6 07 c0 df 38 ca c5 cf 64 05 c0
       -2.963877549751599 -2.674224419816809
000410 ce 15 65 8e 2b 8b 21 c0 fd 08 63 10 8d 10 22 c0
       -8.771816682662486 -9.032326232995269
000420 0e 56 34 f0 81 33 02 c0 7c 3c 13 07 59 1c 02 c0
       -2.2751501813861585 -2.2638416817422335
000430 94 15 4f 12 6f dc 01 c0 fb 06 e8 aa 7b 80 e4 bf
       -2.2326337271103487 -0.6406839693083549
000440 00 00 00 00 00 00 10 c0 49 37 cf e1 6b 6c 21 c0
       -4.0 -8.711760574860493
000450 40 04 49 04 b3 2c 06 c0 cc 81 f4 4f d0 62 05 c0
       -2.7718258223326586 -2.673248886727583
000460 1b d5 e9 85 07 9b 05 c0 12 0b 8a b3 65 51 03 c0
       -2.700697942923069 -2.414744761133428
000470 1d ea 91 e3 ab c9 21 c0 60 bd 14 d6 5b 4a 21 c0
       -8.89388953357871 -8.645231905013759
000480 1c 7a d5 7c 31 00 0a c0 c0 d1 7e 11 fa 0c 0a c0
       -3.250094390168 -3.2563363425090017
000490 7e f6 bc b0 d7 01 0a c0 3a 2f 26 c8 d3 02 0a c0
       -3.250899678007783 -3.2513805042889574
0004a0 eb 7e e9 55 a1 97 24 c0 a5 7f 19 22 42 50 22 c0
       -10.29615276789942 -9.156754556286453
0004b0 00 00 00 00 00 00 00 00 00 00 00 00 00 00 00 00
       0.0 0.0
0004c0 00 00 00 00 00 00 00 00 00 00 00 00 00 00 00 00
       0.0 0.0
0004d0 00 00 00 00 00 00 00 00 00 00 00 00 00 00 00 00
       0.0 0.0
0004e0 f2 c8 ae e3 65 13 0a c0 a0 ae 32 c2 e5 28 0a c0
       -3.259471682330621 -3.269969479724594
0004f0 69 52 6a bc 46 20 0a c0 35 38 8b 3c 7a 31 0a c0
       -3.265759918207824 -3.2741589288698614
000500 24 16 e6 b4 f5 23 22 c0 9c 39 f4 14 0a 5f 22 c0
       -9.070233967863778 -9.185623793423296
000510 76 90 47 5a 92 e3 08 c0 70 5a 0a 96 c7 fe 08 c0
       -3.1111189892854396 -3.124404117766339
000520 80 27 61 86 77 00 09 c0 1c 94 1a 33 a2 06 09 c0
       -3.125227975692667 -3.1282390587316637
000530 d2 dd 16 36 a5 34 22 c0 e2 23 7e 00 c8 46 21 c0
       -9.102822962085074 -8.638244643590898
000540 67 5b 38 d6 04 0d 07 c0 de 70 8a 2e 0f 90 07 c0
       -2.8813568817089847 -2.9453414569853598
000550 4a 9f fc 94 0f 97 07 c0 b2 ca 27 49 88 77 07 c0
       -2.948760189017695 -2.9333654132145393
000560 00 00 00 00 00 00 10 c0 f2 88 c0 47 b3 68 20 c0
       -4.0 -8.2044928
000570 c7 f9 de 99 10 9a 09 c0 bc e9 72 51 c4 b4 09 c0
       -3.200226976506403 -3.213265072173469
000580 bc e9 72 51 c4 b4 09 c0 32 2f 36 8e 5b a1 09 c0
       -3.213265072173469 -3.203787909535003
000590 e0 0a d0 f1 87 fe 23 c0 94 14 e7 9f 1c d1 25 c0
       -9.997130924840747 -10.908421513517432
0005a0 00 00 00 00 00 00 00 00 00 00 00 00 00 00 00 00
       0.0 0.0
0005b0 00 00 00 00 00 00 00 00 00 00 00 00 00 00 00 00
       0.0 0.0
0005c0 00 00 00 00 00 00 00 00 00 00 00 00 00 00 00 00
       0.0 0.0
0005d0 36 a1 a6 60 b3 db 08 c0 3a 35 26 94 b5 b6 08 c0
       -3.107275729260574 -3.089213521400464
0005e0 0a 53 a6 00 80 d5 08 c0 24 24 c8 67 32 b5 08 c0
       -3.1042480517156763 -3.088475046916317
0005f0 00 11 27 31 91 ab 1c c0 82 06 e2 97 b3 d0 1c c0
       -7.167546051034378 -7.203810094042298
000600 09 f3 af e1 c9 93 09 c0 2e b2 3d 36 7d b7 09 c0
       -3.19716240232663 -3.214594291456044
000610 7b 60 83 7b 06 ac 09 c0 fc 59 d6 eb cb b2 09 c0
       -3.2089967393367806 -3.212303011397351
000620 c8 73 ba 7b 8a 5b 1c c0 4c 5e d9 0b 90 73 22 c0
       -7.089395459418434 -9.225708360943052
000630 1c 93 8c 48 98 5b 08 c0 b4 9d 56 c6 e8 d0 08 c0
       -3.044724051275251 -3.102006482618629
000640 6e e3 a3 88 97 fc 08 c0 aa 4d c3 a5 c9 ee 08 c0
       -3.123335902692296 -3.11659554960507
000650 e2 3a cc d9 4d 7e 25 c0 00 00 00 00 00 00 10 c0
       -10.746687704258367 -4.0
000660 63 ec cb e7 58 7b 09 c0 e3 b3 c5 83 54 b2 09 c0
       -3.185228167448757 -3.21207526156512
000670 dc ce 5a 00 19 aa 09 c0 4f cd 84 b8 25 9c 09 c0
       -3.2080554988586822 -3.2012438216712904
000680 c8 70 e3 4b 39 43 25 c0 3c 7a 87 5c f6 5c 1b c0
       -10.631296512140025 -6.840783544320001
000690 00 00 00 00 00 00 00 00 00 00 00 00 00 00 00 00
       0.0 0.0
0006a0 00 00 00 00 00 00 00 00 00 00 00 00 00 00 00 00
       0.0 0.0
0006b0 00 00 00 00 00 00 00 00 00 00 00 00 00 00 00 00
       0.0 0.0
0006c0 aa f1 d2 4d 62 10 e8 bf aa f1 d2 4d 62 10 e8 bf
       -0.752 -0.752
0006d0 aa f1 d2 4d 62 10 e8 bf 9a f9 a1 48 a6 ea 29 40
       -0.752 12.958299894115772
0006e0 22 44 12 77 fd cc 06 c0 00 00 00 00 00 00 10 c0
       -2.8500928213548073 -4.0
0006f0 26 f6 9a 57 75 96 f6 bf fd 6e e3 19 4c e5 01 c0
       -1.4117330000002624 -2.236961557629796
000700 42 cf e6 00 5a ea 04 c0 2c 56 49 f0 94 fd 04 c0
       -2.6144294805943966 -2.6238192341213757
000710 09 cd 6b 74 2b f2 20 c0 63 14 fd 7f 82 c1 22 c0
       -8.47298778358392 -9.377948760646353
000720 43 d4 38 2c f1 a6 f9 bf 72 64 8f 97 08 30 f9 bf
       -1.603257344 -1.5742269439999999
000730 72 64 8f 97 08 30 f9 bf 34 93 e4 c3 30 83 f8 bf
       -1.5742269439999999 -1.532028928
000740 00 00 00 00 00 00 10 c0 00 00 00 00 00 00 10 c0
       -4.0 -4.0
000750 14 5a 03 36 53 68 fa bf 7c 3c 13 07 59 1c 02 c0
       -1.650469981182714 -2.2638416817422335
000760 4e 9b e6 c7 8f 13 01 c0 0e 9d 38 14 5e 1c 02 c0
       -2.134551583981568 -2.263851316430766
000770 c0 ab 21 97 bb e3 1b c0 40 35 5e ba 49 0c 1a c0
       -6.972395287923916 -6.5120000000000005
000780 00 00 00 00 00 00 00 00 00 00 00 00 00 00 00 00
       0.0 0.0
000790 00 00 00 00 00 00 00 00 00 00 00 00 00 00 00 00
       0.0 0.0
0007a0 00 00 00 00 00 00 00 00 00 00 00 00 00 00 00 00
       0.0 0.0
0007b0 b8 da 6d 30 cb d7 09 c0 fe 58 fe fa 74 ed 09 c0
       -3.2303680213475126 -3.2409457787390457
0007c0 e4 df 44 64 39 f2 09 c0 f0 cb c9 7b a1 fd 09 c0
       -3.243273528434644 -3.248843161674351
0007d0 4c 57 aa 5c 33 7f 21 c0 6d e5 a4 58 97 2a 22 c0
       -8.748438735765056 -9.083185930375032
0007e0 74 dc 21 bb 2e fc 07 c0 6f da b2 e2 ea fe 07 c0
       -2.99813600728117 -2.999471446116608
0007f0 40 ee d3 ba 29 2c 08 c0 6f da b2 e2 ea fe 07 c0
       -3.0215639682699305 -2.999471446116608
